models/hey_fantasma.onnx (onnx, 205430 bytes, 9 tensors)

layer1.weight f4 [32, 1536]
0.014397103 -0.023915369 0.012442356 -0.015797028 0.020682983 -0.004030293 -0.016389206 0.020149436
-0.045489762 0.018240023 -0.022828205 0.005915539 -0.008129907 -0.014682346 -0.010587193 -0.028015047
-0.012064372 0.030311285 0.0030071086 0.02228256 -0.0044950093 -0.018660037 0.021982308 0.020396776
-0.013115895 -0.0020485974 0.01609483 -0.0041168183 -0.028446922 0.011783521 -0.0036554476 0.012273141
0.002080829 -0.013487334 -0.0017444856 -0.0012871563 0.018315533 -0.013951993 0.021819727 -0.01054086
-0.02154263 0.010562484 -0.0072674095 -0.0058365404 -0.0032795568 -0.0013523356 -0.0109108 -0.019426329
0.006482488 0.00838158 -0.015971052 0.002923447 0.016699579 0.012590058 0.008440352 -0.024159461
0.004880749 0.016742945 -0.0026752425 -0.012574999 0.017438097 -0.02108587 0.003933686 -0.023542855
0.016764082 0.012312279 0.004122331 0.012082028 -0.017969819 -0.00731705 -0.01412737 -0.018701738
-0.019220702 -0.0002287423 -0.008019943 0.009236086 0.0071529 0.025438888 -0.018006705 0.020567749
0.018715937 -0.018034654 0.0024911168 -0.016701955 0.0011389371 -0.03263611 -0.0066400217 0.016614966
0.021911213 -0.017792964 0.02122413 0.015566448 -0.011937842 0.017904686 0.0036732717 -0.013237229
0.007469119 -0.00791151 -0.0154166315 -0.043301642 0.0019558016 -0.0121946875 -0.025236737 -0.013959417
-0.0066079954 -0.02750188 -0.018128565 0.0093818605 -0.018884176 -0.019877259 0.015055584 -0.00480814
0.0064880955 0.031037804 -0.026174486 0.015350586 0.0051305303 0.003409484 -0.021994302 0.01965003
-0.018186517 -0.011114149 -0.00516456 0.0016914508 -0.026325079 -0.018067027 -0.01630828 -0.0013642958
-0.0026696818 0.017841002 0.01781486 0.0038272645 -0.013324649 0.010246907 -0.022906926 0.0044342102
0.0029769032 -0.030747028 -0.011529703 -0.023742778 -0.0077433637 0.0008879242 0.013871176 -0.023099357
-0.031535644 0.014275407 -0.0045437654 0.008058655 0.0092373835 -0.0039895833 -0.00082649576 -0.022910718
-0.023542777 0.01977334 0.012353742 0.0124569405 0.01843135 0.007964445 0.0075015156 -0.011240532
0.016186707 -0.017670661 -0.0056057037 -0.0018201004 -0.00741475 -0.0064412924 -0.017431628 0.01283235
-0.0064526675 0.015020654 -0.010408027 -0.0078053395 -0.0065083397 0.02820555 0.014923017 -0.006793246
0.02513853 0.021413568 0.020669408 0.015688905 0.0020939063 0.0010590611 -0.024975149 0.019781675
-0.008421884 0.022642288 0.019939894 0.020591425 -0.008669367 -0.015638886 0.020298967 -0.008146496
-0.0068454836 -0.017942892 -0.014286773 -0.045249104 -0.013271363 -3.1199168e-05 0.013846824 -0.0146161
-0.024369981 0.014321425 -0.023952255 0.01035982 0.0036669641 -0.0010818504 0.006527934 -0.013576456
-0.0322908 -0.0009251143 -0.006621172 0.013340779 -0.0006296042 -0.027598342 -0.009819312 -0.017118996
0.0020541162 -0.017342525 -0.015829576 -0.004576662 -0.020873807 0.00030363153 0.02925709 0.020516984
0.026141752 0.0025642933 0.019521225 0.016956592 -0.00079436577 -0.024465567 0.01809538 0.00835196
0.024227545 -0.007930498 -0.014652748 -0.0051905694 -0.023398438 -0.016877903 -0.008592269 -0.027906412
-0.016013965 0.03182912 0.027169975 0.0028140913 0.021232316 0.038682956 -0.009482449 0.024492078
0.012486922 -0.023694603 0.018755563 0.0034332338 -0.0038675799 -0.010146565 0.026667263 -0.010374078
00000000: d4e1 6b3c 2aea c3bc 06db 4b3c c568 81bc
00000010: 5c6f a93c 8c10 84bb a842 86bc 6e10 a53c
00000020: 7953 3abd 1a6c 953c 3702 bbbc 23d7 c13b
00000030: 4d33 05bc 398e 70bc e875 2dbc d07f e5bc
00000040: a5a9 45bc 5f4f f83c e912 453b ea89 b63c
00000050: df4a 93bb efdc 98bc 3e14 b43c 2417 a73c
00000060: 0de4 56bc c341 06bb 4ed9 833c 60e6 86bb
00000070: 8509 e9bc ab0f 413c 3c90 6fbb 4915 493c
00000080: 855e 083b fbf9 5cbc 39a7 e4ba ccb5 a8ba
00000090: 750a 963c e696 64bc 49bf b23c 92b3 2cbc
000000a0: 2b7a b0bc 450e 2d3c 7323 eebb 7340 bfbb
000000b0: d5ed 56bb da40 b1ba 36c3 32bc f723 9fbc
000000c0: 0d6b d43b e552 093c b9d5 82bc 4d97 3f3b
000000d0: 8ecd 883c 8846 4e3c 6749 0a3c 10ea c5bc
000000e0: b1ee 9f3b 8028 893c 1f53 2fbb 5e07 4ebc
000000f0: 57da 8e3c 46bc acbc 26e6 803b f2dc c0bc
00000100: d454 893c 71b9 493c 9e14 873b b3f3 453c
00000110: 7135 93bc ddc3 efbb 7c76 67bc 6334 99bc
00000120: bc74 9dbc 8bda 6fb9 1466 03bc f452 173c
00000130: e062 ea3b 3765 d03c cc82 93bc b27d a83c
00000140: 2a52 993c 69bd 93bc 0142 233b 8ad2 88bc
00000150: 6348 953a 71ad 05bd 8a94 d9bb 1c1c 883c
00000160: 257f b33c 8dc2 91bc 3ade ad3c 6a0a 7f3c
00000170: f096 43bc d9ac 923c 46bb 703b f6e0 58bc
00000180: 83bf f43b 479f 01bc 0a96 7cbc 105d 31bd
00000190: e82c 003b 3acc 47bc 46bd cebc 0ab6 64bc
000001a0: e287 d8bb 9f4b e1bc 5b82 94bc 60b6 193c
000001b0: fdb2 9abc a2d5 a2bc b2ab 763c 9a8d 9dbb
000001c0: 179a d43b fe42 fe3c e06b d6bc 0681 7b3c
000001d0: 021e a83b a671 5f3b 652d b4bc 1af9 a03c
000001e0: e4fb 94bc 1f18 36bc 783b a9bb acb3 dd3a
000001f0: b1a7 d7bc 4d01 94bc f198 85bc 2cd2 b2ba
00000200: d4f5 2ebb 4b27 923c 78f0 913c d8d2 7a3b
00000210: a14f 5abc a5e2 273c 4ea7 bbbc da4c 913b
00000220: 2618 433b 31e1 fbbc 14e7 3cbc 3780 c2bc
00000230: 0bbc fdbb 96c3 683a ee43 633c dd3a bdbc
00000240: 852b 01bd 66e3 693c dee3 94bb 7308 043c
00000250: 6558 173c 0dbb 82bb 31a9 58ba 42af bbbc
00000260: c8dc c0bc b3fb a13c 5967 4a3c 3218 4c3c
00000270: 58fd 963c 4e7d 023c 46cf f53b 352a 38bc
00000280: fc99 843c 10c2 90bc 0db0 b7bb 6f90 eeba
00000290: 6ef7 f2bb 7a11 d3bb c6cc 8ebc c73e 523c
000002a0: e670 d3bb 3019 763c 6e86 2abc efc3 ffbb
000002b0: e943 d5bb 530f e73c ab7f 743c e199 debb
000002c0: 52ef cd3c 826b af3c e452 a93c 0586 803c
000002d0: eb39 093b 32d0 8a3a af98 ccbc 2e0d a23c
000002e0: f1fb 09bc 527c b93c fd58 a33c 59af a83c
000002f0: f609 0ebc 1f1d 80bc 054a a63c e178 05bc
00000300: 1450 e0bb f9fc 92bc 1213 6abc 2057 39bd
00000310: 2270 59bc dadb 02b8 cadd 623c 5e78 6fbc
00000320: 8ea3 c7bc 69a4 6a3c 8537 c4bc 3cbc 293c
00000330: 7351 703b e0cc 8dba 48e8 d53b c96f 5ebc
00000340: 5c43 04bd 5f83 72ba 6bf6 d8bb 4893 5a3c
00000350: 060c 25ba eb15 e2bc 2ee1 20bc 233d 8cbc
00000360: 5a9e 063b e911 8ebc 07ad 81bc d3f7 95bb
00000370: 8cff aabc bc30 9f39 91ac ef3c 3c13 a83c
00000380: 3a27 d63c b40d 283b faea 9f3c 8de8 8a3c
00000390: fc3c 50ba 036c c8bc c33c 943c a9d6 083c
000003a0: d878 c63c ebee 01bc 1412 70bc a715 aabb
000003b0: 15ae bfbc 8743 8abc 97c6 0cbc fd9b e4bc
000003c0: b82f 83bc 405f 023d 9193 de3c 9e6c 383b
000003d0: 65ef ad3c 0572 1e3d 465c 1bbc 9ca3 c83c
000003e0: f295 4c3c 2f1b c2bc 44a5 993c 1b00 613b
000003f0: 3977 7dbb c73d 26bc 4e75 da3c 09f8 29bc

layer1.bias f4 [32]
0.022869006 0.013130204 0.0041167433 -0.005516416 0.008933481 -0.0032376032 0.023306007 0.016082475
-0.016090121 -0.0072163683 -0.0009097438 0.010122989 0.019203855 -0.015072323 -0.025054578 0.004085463
-0.02385881 -0.00699164 0.030918105 0.011234455 -0.00583782 0.020193556 0.002094169 -0.017794937
0.0059524835 0.005490131 -0.011471944 0.011777898 0.010761143 -0.0111168325 -0.008363237 0.01367928
00000000: c857 bb3c 1120 573c bfe5 863b 0dc3 b4bb
00000010: bc5d 123c f82d 54bb 3dec be3c 65bf 833c
00000020: 6ecf 83bc 4977 ecbb df7b 6eba e5da 253c
00000030: 6751 9d3c e8f1 76bc 423f cdbc 59df 853b
00000040: 8d73 c3bc 211a e5bb f747 fd3c b810 383c
00000050: 2f4b bfbb f56c a53c 533e 093b b0c6 91bc
00000060: 0d0d c33b 8fe6 b33b d2f4 3bbc 16f8 403c
00000070: 814f 303c 6023 36bc f505 09bc 0f1f 603c

layernorm1.weight f4 [32]
0.996623 1.0146158 0.9601175 1.0107836 0.9945437 0.9859425 1.0183897 1.0116147
0.99708873 0.981265 1.0283477 0.9940379 0.95020574 0.99344003 0.99837077 0.997777
1.0078491 0.9971231 1.0392108 1.006951 0.9885426 0.99659884 1.0083399 0.99869776
1.0170046 0.99732727 0.9983192 1.0068 0.99709713 0.98864096 1.0219213 0.99493766
00000000: af22 7f3f eede 813f 43ca 753f 5b61 813f
00000010: 6a9a 7e3f ba66 7c3f 985a 823f 977c 813f
00000020: 3541 7f3f 2f34 7b3f e6a0 833f 4579 7e3f
00000030: af40 733f 1652 7e3f 3a95 7f3f 506e 7f3f
00000040: 3301 813f 7643 7f3f dc04 853f c5e3 803f
00000050: 2111 7d3f 1a21 7f3f 4811 813f a8aa 7f3f
00000060: 352d 823f d750 7f3f d991 7f3f d3de 803f
00000070: c241 7f3f 9317 7d3f 51ce 823f 3cb4 7e3f

layernorm1.bias f4 [32]
-0.0061657387 0.027465863 0.0034530095 0.01585478 0.0028003126 -0.009647067 0.020314252 -0.00045051402
-0.008585884 0.02604462 -5.4076983e-05 -0.0071324576 0.014208981 -0.010708505 -0.0064051035 -0.011043992
0.0027246315 -0.0006168107 0.026295511 0.00020985528 0.009651148 -0.0066435663 -0.0008468044 -0.006545251
0.030218614 0.002539245 0.013326307 0.030326456 -0.0061836443 -0.0049129194 0.013733828 -0.0040656757
00000000: f709 cabb 1700 e13c e34b 623b e2e1 813c
00000010: 7385 373b bb0e 1ebc 136a a63c f832 ecb9
00000020: cfab 0cbc 875b d53c b8d0 62b8 64b7 e9bb
00000030: c9cc 683c ba72 2fbc e7e1 d1bb dcf1 34bc
00000040: bb8f 323b 77b1 21ba af69 d73c 990c 5c39
00000050: d91f 1e3c 46b2 d9bb 15fc 5dba 8b79 d6bb
00000060: 078d f73c 7669 263b 9556 5a3c 306f f83c
00000070: 2ba0 cabb 8efc a0bb da03 613c 5c39 85bb

blocks.0.fcn_layer.weight f4 [32, 32]
0.15495728 0.078385025 0.11897783 0.10242979 0.045712825 0.08237351 -0.16569763 -0.090816885
0.027958639 0.10327233 0.06837846 0.024929637 -0.13246101 -0.045650773 -0.10835455 0.012018265
-0.10407795 -0.15513839 0.0066538122 -0.030530116 0.011128534 0.13186002 0.09592196 -0.16809842
0.096925534 3.5145786e-05 0.17172615 0.09245884 -0.010728209 -0.13448739 0.121695384 -0.0065066055
0.10153569 -0.14651416 0.09644176 -0.17059699 0.15124978 0.024580473 -0.045645554 -0.08305454
0.031294137 0.014315098 0.14106238 0.045716748 0.04327656 -0.024764402 -0.013278493 0.04184746
-0.063712165 0.020135708 0.0051355683 0.14009802 -0.1174387 0.048741985 0.11414779 -0.15758619
0.04062906 -0.017640818 0.16749425 -0.0262705 -0.06671905 -0.1265851 0.1132375 0.058283992
0.13401085 -0.023052327 0.023683818 -0.12904632 0.0069154445 -0.06782085 -0.18105726 0.17218101
0.0150803905 0.12169472 0.14809276 0.16138342 -0.08370884 0.13190669 -0.005602439 0.12523723
0.010806268 -0.08416333 -0.0029436494 0.08896024 -0.029387007 0.07750379 0.1795189 -0.06323586
0.036795158 0.09147648 0.047889628 0.09536433 0.122258306 -0.0076403515 0.017130692 0.17412548
-0.023610383 -0.047312297 -0.058673747 0.12703618 -0.11216179 0.068127654 -0.0362982 0.06315035
-0.14501247 0.035091974 0.0321202 -0.09728195 0.095394135 0.03168969 -0.009586644 -0.16144833
-0.11669505 -0.14051224 0.17649575 -0.057380974 0.08234837 -0.1328429 -0.02696023 -0.17217048
0.018207239 0.04107279 0.007211627 0.07991741 -0.072286725 -0.072387986 0.10328865 0.026130896
-0.1066543 -0.039833672 -0.08922498 -0.1368456 0.12500419 -0.124309696 0.10058017 -0.063671015
-0.050494816 0.03327596 0.044371013 0.13426314 -0.062783584 -0.091920175 0.14380203 0.0027764873
0.0036864774 0.066682875 -0.21191804 0.093466334 -0.12055377 0.11716794 0.191578 0.09435176
0.08974647 0.018638883 0.11411557 -0.0135339545 0.11255522 -0.10090595 -0.05709095 -0.121885635
-0.14580807 0.13282238 -0.09224462 0.06966531 -0.14617132 -0.098133504 0.049195394 -0.13970183
-0.103611976 0.009934828 -0.1803705 0.030716313 0.023582002 0.16821244 0.07930733 0.12781805
0.12333214 0.12414466 0.24097015 0.0137816565 -0.045290448 -0.11894151 -0.011174914 -0.0031694402
-0.12904438 0.032425683 0.023239447 0.011131883 -0.14150949 -0.09856829 0.07833568 0.06463113
-0.02710076 0.02423172 0.015148095 0.019274702 0.034313127 -0.15022431 0.15831907 0.004255962
0.023044083 0.13089126 0.057534117 0.099691354 0.07529842 -0.15398324 -0.11472547 -0.117651
-0.15868853 -0.08107922 0.011170282 -0.055308368 0.04068772 0.16684848 -0.15534215 -0.10727527
-0.024442727 -0.1602839 -0.115725204 0.13341163 -0.15945485 -0.040746316 0.011996811 -0.18028735
0.002120729 0.12565091 0.16162923 -0.06329121 -0.034512974 -0.07342244 0.020518113 -0.019487029
-0.030091865 0.051469848 -0.011812818 0.13511533 0.11902812 -0.020319894 0.0041809636 -0.05518338
0.11732612 -0.13493048 0.22430661 0.041187234 -0.030144252 0.11828661 -0.010773926 -0.15365523
-0.07723056 -0.039994977 0.10711476 -0.11134282 -0.098447524 -0.15484215 0.14109519 -0.02147779
00000000: 1fad 1e3e 5488 a03d a6aa f33d b6c6 d13d
00000010: 5f3d 3b3d 71b3 a83d a4ac 29be 34fe b9bd
00000020: 8409 e53c 7180 d33d 020a 8c3d 3d39 cc3c
00000030: dca3 07be 4efc 3abd fee8 ddbd 42e8 443c
00000040: d226 d5bd 99dc 1ebe 3908 da3b 4b1a fabc
00000050: 7454 363c 5006 073e bc72 c43d fe21 2cbe
00000060: e580 c63d 8069 1338 fbd8 2f3e 0f5b bd3d
00000070: 5fc5 2fbc 10b7 09be 6e3b f93d 5d35 d5bb
00000080: f2f1 cf3d cf07 16be 4283 c53d fab0 2ebe
00000090: 39e1 1a3e fd5c c93c d5f6 3abd 8018 aabd
000000a0: 482e 003d df89 6a3c a872 103e 7c41 3b3d
000000b0: c342 313d b7de cabc 098e 59bc 3e68 2b3d
000000c0: 867b 82bd a4f3 a43c 4548 a83b db75 0f3e
000000d0: b383 f0bd ada5 473d 51c6 e93d 465e 21be
000000e0: a86a 263d 7a83 90bc 9d83 2b3e 3b35 d7bc
000000f0: ffa3 88bd 869f 01be 10e9 e73d 32bb 6e3d
00000100: 243a 093e 3cd8 bcbc 9104 c23c b824 04be
00000110: f49a e23b a8e5 8abd 1367 39be 3850 303e
00000120: be13 773c 153b f93d a1a5 173e b241 253e
00000130: 8a6f abbd 8c12 073e aa94 b7bb 303e 003e
00000140: c60c 313c d35d acbd 3eea 40bb c930 b63d
00000150: 05bd f0bc 4fba 9e3d cdd3 373e cd81 81bd
00000160: 85b6 163d 0558 bb3d ea27 443d 604e c33d
00000170: 9062 fa3d ea5b fabb aa55 8c3c f34d 323e
00000180: 906a c1bc 8aca 41bd e253 70bd c615 023e
00000190: 15b5 e5bd 8386 8b3d 6cad 14bd f854 813d
000001a0: 267e 14be 9abc 0f3d 7990 033d c23b c7bd
000001b0: 005e c33d 0ccd 013d 4d11 1dbc b652 25be
000001c0: d0fd eebd 71e2 0fbe 4dbb 343e 5008 6bbd
000001d0: 43a6 a83d f807 08be b3db dcbc 754d 30be
000001e0: 5927 953c f13b 283d 834f ec3b bdab a33d
000001f0: 100b 94bd 2740 94bd 0089 d33d 7610 d63c
00000200: 926d dabd a228 23bd 96bb b6bd 4121 0cbe
00000210: 1901 003e 1596 febd fafc cd3d f365 82bd
00000220: a7d3 4ebd 5f4c 083d 61be 353d 477c 093e
00000230: ae94 80bd a540 bcbd d740 133e baf5 353b
00000240: d498 713b 0891 883d 0b01 59be 476b bf3d
00000250: e5e4 f6bd bff5 ef3d 062d 443e 7f3b c13d
00000260: ffcc b73d 92b0 983c 6db5 e93d 85bd 5dbc
00000270: 5a83 e63d c7a7 cebd 33d8 69bd 2d9f f9bd
00000280: b64e 15be 9702 083e bfea bcbd b0ac 8e3d
00000290: efad 15be 38fa c8bd 1c81 493d ff0d 0fbe
000002a0: 8432 d4bd b0c5 223c 0bb3 38be c7a0 fb3c
000002b0: 0b2f c13c e23f 2c3e e26b a23d bce2 023e
000002c0: 9095 fc3d 8e3f fe3d e1c0 763e 75cc 613c
000002d0: 7a82 39bd 9b97 f3bd fd16 37bc 62b6 4fbb
000002e0: 3624 04be cbd0 043d a760 be3c 8062 363c
000002f0: dde7 10be 2cde c9bd 756e a03d 535d 843d
00000300: 6a02 debc 9a81 c63c b72f 783c fbe5 9d3c
00000310: ec8b 0c3d 67d4 19be 651e 223e 9975 8b3b
00000320: f2c6 bc3c 5c08 063e e5a8 6b3d fb2a cc3d
00000330: 0f36 9a3d c8ad 1dbe 30f5 eabd 02f3 f0bd
00000340: 3f7f 22be dd0c a6bd 8f03 373c 078b 62bd
00000350: 2ba8 263d 54da 2a3e 0312 1fbe 23b3 dbbd
00000360: 1d3c c8bc 7621 24be 5601 edbd 0f9d 083e
00000370: 2248 23be 9ce5 26bd 468e 443c 3f9d 38be
00000380: eefb 0a3b a2aa 003e 2282 253e d29e 81bd
00000390: 7a5d 0dbd 815e 96bd 9a15 a83c 43a3 9fbc
000003a0: 3783 f6bc 0cd2 523d 8d8a 41bc ac5b 0a3e
000003b0: 04c5 f33d e875 a6bc 7700 893b f807 62bd
000003c0: ad48 f03d 372b 0abe a2b0 653e f2b3 283d
000003d0: 14f1 f6bc 4040 f23d 1f85 30bc cc57 1dbe
000003e0: 0e2b 9ebd c6d1 23bd fc5e db3d b407 e4bd
000003f0: db9e c9bd f18e 1ebe 427b 103e 31f2 afbc

blocks.0.fcn_layer.bias f4 [32]
-0.059596516 -0.019582905 0.071324795 -0.12435415 0.108709134 0.090455696 -0.12893774 0.03998646
-0.032183167 -0.14215548 -0.1657966 -0.052805528 0.020889372 -0.093674675 0.13712004 -0.03946705
0.17543092 -0.15765679 -0.031185811 0.10352428 -0.092788406 0.06879831 0.07470465 -0.03639546
0.05948435 -0.09014471 0.02679366 -0.11006292 0.14686832 -0.01820386 -0.026499925 0.10947155
00000000: 7a1b 74bd 546c a0bc bc12 923d 63ad febd
00000010: e5a2 de3d d640 b93d 4108 04be d8c8 233d
00000020: 7fd2 03bd 3591 11be 95c6 29be 9c4a 58bd
00000030: 3020 ab3c 82d8 bfbd 3269 0c3e 34a8 21bd
00000040: 2aa4 333e c870 21be 6379 ffbc 8a04 d43d
00000050: d907 bebd 21e6 8c3d c0fe 983d 6813 15bd
00000060: dda5 733d ca9d b8bd 617e db3c ab68 e1bd
00000070: a664 163e 4320 95bc 5f16 d9bc 9f32 e03d

blocks.0.layer_norm.weight f4 [32]
1.2688675 1.021411 1.016135 1.2507598 1.1029965 1.4306943 1.2783064 1.4040456
0.98454386 1.4038432 1.0022905 0.9912381 0.99855614 1.3251191 1.0118078 1.042114
1.040312 1.0011516 1.0603524 1.0105468 1.040406 1.0211265 1.004575 1.2426364
1.2184376 1.1809816 1.0173359 1.0834397 1.0050896 1.0284328 1.0193293 1.0650122
00000000: 406a a23f 98bd 823f b610 823f e618 a03f
00000010: fd2e 8d3f fe20 b73f 8b9f a33f c4b7 b33f
00000020: 110b 7c3f 22b1 b33f 0e4b 803f c8c1 7d3f
00000030: 60a1 7f3f 819d a93f eb82 813f fe63 853f
00000040: f228 853f bc25 803f a1b9 873f 9959 813f
00000050: 062c 853f 46b4 823f ea95 803f b60e 9f3f
00000060: c3f5 9b3f 682a 973f 1038 823f 27ae 8a3f
00000070: c7a6 803f b0a3 833f 6279 823f 5252 883f

blocks.0.layer_norm.bias f4 [32]
0.2693525 0.011196768 0.015487456 0.253981 0.06360784 0.3342297 0.26626942 0.31727698
-0.030952642 0.32171243 0.0019202845 -0.012398336 -0.012884896 0.29122734 0.00917922 0.019619223
0.025598478 -0.028062405 0.04923704 -0.019793056 0.039353933 0.006451331 0.0057494007 0.25413397
0.24065194 0.23199797 0.0056588794 0.0235165 0.009366296 0.023042474 0.012490212 0.035501763
00000000: 92e8 893e a672 373c 19bf 7d3c cc09 823e
00000010: d444 823d 2820 ab3e 7754 883e 2172 a23e
00000020: 6590 fdbc 7eb7 a43e 0eb2 fb3a 6422 4bbc
00000030: 2c1b 53bc c01b 953e 7064 163c 7eb8 a03c
00000040: e6b3 d13c 21e3 e5bc c7ac 493d 0c25 a2bc
00000050: 9731 213d b065 d33b 7865 bc3b d91d 823e
00000060: 766d 763e e090 6d3e 1f6e b93b ada5 c03c
00000070: 1875 193c 92c3 bc3c bfa3 4c3c 4c6a 113d

last_layer.weight f4 [1, 32]
-0.27940893 0.07794362 0.16177453 -0.33951348 0.22189677 -0.3650441 -0.31369308 -0.3500659
0.08277875 -0.34823626 0.06627681 0.10278104 -0.14420623 -0.3054653 0.009465477 0.10604717
0.008288556 0.07120541 0.05388888 0.18718162 0.07938129 0.106725626 0.05958455 -0.29884973
-0.35205135 -0.30701652 0.108114734 0.2408117 0.037661977 0.124278605 0.11116765 0.12406649
00000000: b00e 8fbe e8a0 9f3d 39a8 253e b6d4 adbe
00000010: e838 633e 0fe7 babe 619c a0be d63b b3be
00000020: e887 a93d 064c b2be 23bc 873d de7e d23d
00000030: ccaa 13be f365 9cbe 1715 1b3c 422f d93d
00000040: b9cc 073c 24d4 913d 96ba 5c3d 8aac 3f3e
00000050: a892 a23d f792 da3d ee0e 743d d502 99be
00000060: 1340 b4be 4531 9dbe 426b dd3d 5897 763e
00000070: 7243 1a3d c885 fe3d ddab e33d 9216 fe3d
