models/hey_fantasma.onnx (onnx, 205430 bytes, 9 tensors)

layer1.weight f4 [32, 1536]
0	0x3ca42023	0.020034855
1	0xbc0423b1	-0.00806515
2	0x3c14c073	0.009079087
3	0xbcb5ed77	-0.022207959
4	0x3d002967	0.031289484
5	0xbc878ef9	-0.016547667
6	0x3c8b9e83	0.017043358
7	0xbccb84f6	-0.024843674
8	0xbc621dd0	-0.013801053
9	0xbc2836fb	-0.010267015
10	0xbcc4fc95	-0.024046222
11	0xbba296b3	-0.0049618124
12	0xbb7f6c02	-0.003897429
13	0xbc838032	-0.01605234
14	0xbc4a43cc	-0.012345266
15	0x3cc7b6d7	0.024379177
16	0x3c8ad19c	0.016945653
17	0x3d08202f	0.033233818
18	0x3c9cfbc3	0.019163018
19	0x3b2c19ae	0.0026260423
20	0xbcdd7cda	-0.027037073
21	0xbb7c981f	-0.003854282
22	0x3c91d797	0.017802997
23	0x37b0f226	2.1093594e-05
24	0x3c842526	0.016130995
25	0xbc9331a6	-0.01796801
26	0xbcbb3b1f	-0.02285534
27	0x3c36395b	0.011122073
28	0x3c85a5ad	0.016314352
29	0x3c4761c7	0.012169308
30	0xbc40900e	-0.011753095
31	0xbc87aa17	-0.016560597
32	0xbc94b64c	-0.018153332
33	0xbc7a1453	-0.015263635
34	0xbcbd7f72	-0.02313206
35	0xbc03eca0	-0.008052021
36	0x3ba92edb	0.0051630563
37	0x3ba70057	0.005096476
38	0xbb5624bf	-0.003267571
39	0xbca57d38	-0.02020131
40	0xbc8a5e6c	-0.016890727
41	0xba85b823	-0.0010201972
42	0x3ca78f45	0.020454058
43	0xbc8d1206	-0.017220508
44	0xbcb99957	-0.022656126
45	0x3c929ad6	0.017896097
46	0x3c78f711	0.015195624
47	0xbce53eec	-0.027984105
48	0xbbc1ed83	-0.005918206
49	0xbb426c2d	-0.0029666529
50	0xba809cdb	-0.0009812372
51	0x3bbd6e8c	0.0057810005
52	0xbb72f63a	-0.0037073032
53	0x3cf1e12d	0.029526317
54	0xbc7a9d4b	-0.015296291
55	0xbca610cc	-0.020271681
56	0x3cca1965	0.024670312
57	0x3cb799d1	0.022412213
58	0xbc875016	-0.01651768
59	0x3c014520	0.007890016
60	0x3c810ac2	0.0157522
61	0xbc352dd7	-0.011058292
62	0x3c646234	0.013939429
63	0xbcde6aae	-0.027150478
64	0x3c963360	0.018335044
65	0xbbf280a5	-0.0074005895
66	0xbc0253cd	-0.00795455
67	0xbc93dcb0	-0.018049568
68	0xbc1b3705	-0.009473567
69	0x3c9e0dcc	0.019293688
70	0xb70b0f61	-8.288626e-06
71	0xbcba67e8	-0.022754624
72	0xbc9d2d0a	-0.019186515
73	0xbcb70cae	-0.022344913
74	0xbc2ca12b	-0.010536472
75	0x3cfbb1a3	0.030724352
76	0xbbc83003	-0.006109239
77	0x3c57e6da	0.013177598
78	0xbc0167e4	-0.007898305
79	0xbc2fe369	-0.010735371
80	0x3c0500e2	0.008117886
81	0xbc0eca79	-0.008715265
82	0x3c93c902	0.018040184
83	0xbbacb8cc	-0.005271053
84	0xbcbf2b40	-0.023336053
85	0xbb8f8cfe	-0.0043808213
86	0x3c801b17	0.015637917
87	0xbc1413ab	-0.009037892
88	0x3cb78ccd	0.022406006
89	0x3cc60393	0.024171626
90	0x3cd409e8	0.02588363
91	0xbc67451a	-0.014115596
92	0x3c895608	0.016764656
93	0x3c493bcd	0.012282324
94	0xba718fc5	-0.0009214844
95	0xbb524682	-0.0032085483
96	0x3c931469	0.017954068
97	0xbbb74150	-0.0055925027
98	0xbc5a89d6	-0.013338527
99	0xbc977b1d	-0.018491322
100	0xbc2f0997	-0.010683439
101	0x3cc7c197	0.024384303
102	0x3cbd5301	0.023110868
103	0xbcd790a5	-0.02631409
104	0x3b80ca98	0.003930401
105	0x3b9744d4	0.0046163592
106	0xbcad3de8	-0.021147683
107	0x3c8ff05f	0.017570673
108	0xbc8228c2	-0.015888575
109	0xbbe105c5	-0.006867143
110	0x3cb70010	0.022338897
111	0xbab1fc72	-0.0013579263
112	0xbc38088b	-0.011232506
113	0xbb50480e	-0.003178123
114	0xbcb4e334	-0.022080995
115	0x3cb9cfc3	0.022682076
116	0xbc3aac40	-0.011393607
117	0x3c0be9d4	0.008539636
118	0x3aeda3c5	0.0018130472
119	0x3af8ab22	0.00189719
120	0x3ca2be4f	0.019866137
121	0x3c866b4f	0.01640859
122	0x3c678fcb	0.014133404
123	0xbd07d0fa	-0.03315828
124	0xbc870514	-0.016481914
125	0xbb00572e	-0.0019583213
126	0x3ca399b7	0.019970758
127	0x3cd05370	0.025430411
128	0xbc5b2a4e	-0.013376785
129	0xbb3dd389	-0.0028965196
130	0x3c0fd61a	0.008779073
131	0xbc93267f	-0.017962692
132	0xbb53c976	-0.0032316125
133	0x3b2eaed9	0.002665451
134	0x3c6a658c	0.014306437
135	0x3c8241da	0.015900541
136	0xbca49a9c	-0.020093255
137	0xbb1696e0	-0.0022978112
138	0x3c474745	0.012162988
139	0x3a4988fe	0.0007687955
140	0xbc05c256	-0.008164009
141	0xbc026a53	-0.00795992
142	0xbcd1a5f5	-0.02559183
143	0x3b23f361	0.0025016891
144	0x3b9f53b6	0.004862274
145	0x3ba337ce	0.0049810177
146	0x3b236783	0.0024933524
147	0x3b7b6a6a	0.0038362988
148	0xbcc953ab	-0.024576029
149	0x3cd2b84f	0.02572265
150	0x3c3335ae	0.010938091
151	0x3bf99b5d	0.0076173977
152	0xbb13d80a	-0.002255919
153	0xbc7c8a6f	-0.0154138645
154	0xbc7f5d44	-0.015586201
155	0xbc95e396	-0.018296998
156	0x3cab0926	0.020878386
157	0xbcb60daa	-0.022223312
158	0x3b0e0c18	0.002167469
159	0x3c84140b	0.016122838
160	0x3c7c49f9	0.015398496
161	0x3ca0fd6e	0.019652095
162	0xbbf2fb12	-0.007415184
163	0xbcaaf33c	-0.020867936
164	0x3cafd436	0.021463495
165	0x3cb6977f	0.022289036
166	0x3c97ee88	0.018546358
167	0xbc01ae4b	-0.00791509
168	0x3cc69b23	0.024243897
169	0x3c85aa3a	0.016316522
170	0xbb97096a	-0.0046092765
171	0x3c80f41d	0.015741402
172	0x3d124a7b	0.03571556
173	0x3cc0fd0c	0.023558162
174	0x3c090b0a	0.008364448
175	0x3c40c71f	0.011766224
176	0xbc52ea16	-0.012873193
177	0xbb8ac159	-0.0042344746
178	0xbc1bb100	-0.009502649
179	0x3c9609b9	0.018315183
180	0xbc3ca9f1	-0.011515127
181	0xbd0f8dfd	-0.03504752
182	0xbc9e7f20	-0.019347727
183	0xbc0de184	-0.008659724
184	0x390fd564	0.00013717037
185	0x3c2d8d52	0.010592775
186	0x3d09d69c	0.033651933
187	0x3cb6471e	0.022250708
188	0x3bd8775c	0.0066060256
189	0x3bc59f50	0.0060309544
190	0xbce3fec0	-0.027831435
191	0xbbdbe49c	-0.006710602
192	0x3c43f257	0.011959634
193	0x3bece5be	0.007229536
194	0x3ca69dc8	0.020338908
195	0xbd158ece	-0.036513142
196	0x3b8e3c39	0.004340675
197	0xbca313b3	-0.019906854
198	0xbb371df5	-0.002794144
199	0xbcd16442	-0.025560502
200	0xbc46c0ac	-0.0121308975
201	0x3ca1c52d	0.019747341
202	0xbca74874	-0.02042029
203	0x3c8cb718	0.01717715
204	0xbc1824bf	-0.009286105
205	0xbc7d459c	-0.015458491
206	0xbcc377d5	-0.023860851
207	0xbc77bb56	-0.015120348
208	0xbc92790f	-0.01787999
209	0x3d018483	0.031620514
210	0xbc77254c	-0.015084576
211	0x3c6429bf	0.013925969
212	0xbc97e17c	-0.018540137
213	0xbc60ce7c	-0.013721105
214	0x3c7bb5e8	0.015363194
215	0xbc9e4e61	-0.019324483
216	0xbc232255	-0.009956916
217	0x3c0d4c14	0.0086240955
218	0xbc17a6c0	-0.009256065
219	0xbabb5ffb	-0.0014295572
220	0xbc4f9d36	-0.012671759
221	0xbc8594e8	-0.016306356
222	0x3cc54786	0.024081957
223	0x3cda2edb	0.02663367
224	0x3c7d2bcb	0.015452336
225	0xbb4ca70e	-0.0031227502
226	0xbcc66773	-0.02421925
227	0xbcab6403	-0.020921713
228	0xbc7ee880	-0.015558362
229	0x3cce87ab	0.025211176
230	0xbc3dfded	-0.011596185
231	0x3cb18949	0.021671908
232	0xbc8d59bf	-0.017254708
233	0x3bff198b	0.0077850274
234	0x3cc23ec3	0.023711568
235	0x3cad654a	0.021166462
236	0x3ba49a11	0.005023249
237	0xbcbdb9a1	-0.023159804
238	0x3bcd0f87	0.0062579545
239	0x3bd5b96a	0.006522347
240	0x3c013cb0	0.007888004
241	0xb9f99ed9	-0.00047611332
242	0xbcba986f	-0.022777764
243	0xbccbcd86	-0.024878275
244	0xbc88f413	-0.016717946
245	0xbc8f9b7d	-0.017530197
246	0x3c18d8a2	0.009328993
247	0xbc87589b	-0.016521743
248	0x3b2a4d62	0.0025986065
249	0x3b06de4d	0.002057928
250	0x3c00d73f	0.007863819
251	0x3c9e0ad6	0.019292276
252	0xbb6481ef	-0.0034867486
253	0xbc2dc3a2	-0.0106057245
254	0xbb99fd61	-0.0046993946
255	0x3cb623ce	0.02223387

layer1.bias f4 [32]
0	0x3cb1a844	0.02168668
1	0x3cbbd616	0.022929233
2	0xb6c58ae3	-5.887226e-06
3	0xba86c18c	-0.001028107
4	0x3cbf1ad2	0.023328219
5	0x3c8cf26d	0.017205441
6	0xbc96aa47	-0.018391741
7	0xbc86064f	-0.01636043
8	0x3c35e20a	0.011101255
9	0x3c1e0fcc	0.009647321
10	0xbcc3e7cf	-0.023914246
11	0x3c462b96	0.012095353
12	0x3c156309	0.00911785
13	0x3b9f5510	0.004862435
14	0x3c99550b	0.01871731
15	0xbbc9b9ba	-0.0061561735
16	0xbba10bb3	-0.0049147247
17	0xbbf7e989	-0.0075656814
18	0xbc93a040	-0.01802075
19	0x3ac51721	0.00150368
20	0xbc1a5b52	-0.0094211865
21	0x3ac0a707	0.0014698216
22	0x3cb32372	0.021867488
23	0xbca27830	-0.0198327
24	0xbb8fb129	-0.004385133
25	0xbc1a5547	-0.009419746
26	0x3c5991f8	0.013279431
27	0xbc0d58fd	-0.0086271735
28	0xbca0a459	-0.019609617
29	0xbc23c40d	-0.009995473
30	0x3c9ca27c	0.019120447
31	0xbb10d4ea	-0.0022099563

layernorm1.weight f4 [32]
0	0x3f7f8aab	0.99820966
1	0x3f7d4c1d	0.98944265
2	0x3f812b92	1.0091422
3	0x3f7d89d6	0.99038446
4	0x3f8288a3	1.0197948
5	0x3f7f5d54	0.9975178
6	0x3f826200	1.0186157
7	0x3f82a7a2	1.0207407
8	0x3f7c1c9e	0.98481166
9	0x3f812fd5	1.0092722
10	0x3f7cc853	0.9874317
11	0x3f7d8478	0.99030256
12	0x3f7f39f5	0.9969781
13	0x3f6c73f5	0.92364436
14	0x3f7ea000	0.9946289
15	0x3f82cf8b	1.0219587
16	0x3f7e94ce	0.9944581
17	0x3f7ebec1	0.9950982
18	0x3f7ecca8	0.9953103
19	0x3f7f921d	0.99832326
20	0x3f6b4aff	0.9191131
21	0x3f7f2e4c	0.9968002
22	0x3f82c62e	1.021673
23	0x3f7d4c14	0.9894421
24	0x3f7897a9	0.97106415
25	0x3f7e44c5	0.99323684
26	0x3f82eb02	1.0227969
27	0x3f795d19	0.9740768
28	0x3f84d61c	1.0377841
29	0x3f7eee49	0.99582344
30	0x3f81df29	1.0146228
31	0x3f81eb8d	1.0150009

layernorm1.bias f4 [32]
0	0xbc2311d1	-0.009952978
1	0x3c9a5782	0.018840555
2	0x3bea7a57	0.0071556973
3	0x38ddb1f0	0.00010571245
4	0x3b63638f	0.0034696793
5	0xbc469b86	-0.012122041
6	0x3c346b72	0.011011945
7	0x3c3f41f9	0.011673444
8	0xba97f394	-0.0011592978
9	0x3bad0087	0.005279604
10	0xbbec7d89	-0.0072171134
11	0x3b8cd2b2	0.004297578
12	0x3ca58b2b	0.020207962
13	0xbd8faa85	-0.07014946
14	0xbb9d4c02	-0.0048003206
15	0x3b7d1a3f	0.003862038
16	0x3aa9f444	0.0012966474
17	0xbc513861	-0.012769789
18	0xbc23db8c	-0.0100010745
19	0xbc1f1d42	-0.009711565
20	0xbd8a72ef	-0.06760203
21	0xbc72fc06	-0.014830595
22	0x3c4b9489	0.01242555
23	0x3bfe5bbe	0.0077624014
24	0x3c63c6e5	0.013902401
25	0xbc8413db	-0.01612275
26	0x3c56d47a	0.013112182
27	0xbc91c35e	-0.017793354
28	0x3cb5481b	0.02212911
29	0x3ba5d4c6	0.005060765
30	0x3c26caa2	0.010180147
31	0x3c65fc9b	0.014037277

blocks.0.fcn_layer.weight f4 [32, 32]
0	0x3e22b4f6	0.15889344
1	0xbd47137d	-0.04860257
2	0xbd8f7334	-0.07004395
3	0x3db1539d	0.08658526
4	0x3d8d5c13	0.069023274
5	0x3e1171de	0.14203593
6	0x3dce7927	0.10081702
7	0x3d49286f	0.049110826
8	0x3dbfa9cf	0.0935856
9	0xbe05d63e	-0.13070008
10	0x3e0dfa70	0.13865066
11	0x3cf7f52d	0.030268276
12	0x3cde9689	0.02717139
13	0xbe06924d	-0.13141747
14	0xbceb8468	-0.02874966
15	0xbe16b73d	-0.14718337
16	0xbd6bb71f	-0.057547685
17	0x3e2c9ef3	0.1685751
18	0xbd99906b	-0.07498249
19	0xbe2763fb	-0.16346733
20	0xbd85d72c	-0.065351814
21	0x3e052a31	0.13004376
22	0xbe260323	-0.16212134
23	0x3defc9f6	0.11708443
24	0x3d848e72	0.06472482
25	0xbe271100	-0.16315079
26	0xbe2a3038	-0.16619956
27	0xbd40feba	-0.047117926
28	0xbd90d442	-0.07071735
29	0x3d0bb9d6	0.034112774
30	0x3e145635	0.1448601
31	0x3dc19c51	0.09453643
32	0x3e2347d7	0.15945373
33	0xbdc4bf54	-0.096068054
34	0xbdcae790	-0.09907448
35	0xbd28594c	-0.041100785
36	0x3cd73130	0.026268572
37	0x3dc39d1a	0.09551449
38	0x3d0a3980	0.033746243
39	0xbe02593c	-0.12729353
40	0xbe07ba18	-0.13254583
41	0xbe0b263b	-0.13588803
42	0xbda57340	-0.08078623
43	0x3def4101	0.116823204
44	0x3d0cb96e	0.034356527
45	0xbd8b4b05	-0.06801418
46	0x3d722ee1	0.05912674
47	0xbdf2ffd8	-0.118652046
48	0x3e2332de	0.15937373
49	0x3e122195	0.14270623
50	0x3ddbd4a8	0.1073392
51	0x3da5f96f	0.08104216
52	0x3dc8e286	0.09808831
53	0xbd55f311	-0.05223376
54	0x3dc7a380	0.09747982
55	0xbe390f0f	-0.1807215
56	0xbc2ba3d8	-0.010476075
57	0x3dd1150b	0.10209092
58	0xbd773cfb	-0.06036089
59	0xbd84f570	-0.06492126
60	0x3db4b151	0.08822883
61	0xbca5263c	-0.020159833
62	0x3db91b64	0.090384275
63	0xbe3b6ddb	-0.18303625
64	0xbd2dd9c6	-0.042444013
65	0xbddc71a2	-0.10763861
66	0xbae721f2	-0.0017634018
67	0xbd421153	-0.047379803
68	0x3e047e55	0.12938817
69	0xbdc027b7	-0.09382575
70	0x3cc87477	0.024469597
71	0xba82b0d1	-0.0009970908
72	0xbcb3d44e	-0.02195182
73	0xbde8df38	-0.113707006
74	0xbd9eb8cc	-0.07750091
75	0x3dcc3a99	0.09972114
76	0xbc8f9583	-0.017527347
77	0xbc5536e0	-0.0130135715
78	0xbc71524d	-0.014729095
79	0xbde22af3	-0.11043348
80	0x3d91befa	0.07116504
81	0x3e11cfd3	0.14239435
82	0x3e111944	0.14169794
83	0xbba3d3ee	-0.004999629
84	0x3d9fdf13	0.0780622
85	0x3cda88a5	0.026676485
86	0x3dac5554	0.084147125
87	0x3db496c0	0.08817816
88	0xbe1e55a7	-0.15462361
89	0xbd7bbf66	-0.06146183
90	0xbc814daf	-0.015784113
91	0x3e2bd213	0.16779356
92	0xbd1e00fb	-0.038575154
93	0x3ab86e62	0.0014070983
94	0x3c3bddc7	0.01146645
95	0xbdd17809	-0.10227973
96	0x3d978035	0.073975004
97	0x3e1253a3	0.14289717
98	0xbd330c52	-0.04371292
99	0xbd5435a5	-0.051808972
100	0xba69d70d	-0.00089202897
101	0xbe1b1e9d	-0.15148397
102	0xbde358bc	-0.11100909
103	0x3cb73419	0.02236371
104	0xbe2e883c	-0.17044157
105	0x3dd7d48f	0.10538589
106	0xbd133468	-0.03593865
107	0x3de94ab2	0.113912
108	0xbc8265cf	-0.015917687
109	0x3d686708	0.056738883
110	0xbd6049a4	-0.05475773
111	0xbde00aec	-0.10939583
112	0xbdbd8739	-0.09254307
113	0xbdd1ea83	-0.10249808
114	0xbe0d59d7	-0.13803802
115	0xbd4a4b1e	-0.049388044
116	0x3dc25ef4	0.09490767
117	0x3d1f7f25	0.038939614
118	0x3d5b2181	0.05349875
119	0xbd9b4226	-0.07580976
120	0xbd28b395	-0.041186888
121	0xbd645fdf	-0.055755492
122	0x3d815f27	0.06316977
123	0x3e493c6c	0.19651955
124	0xbe2bed02	-0.1678963
125	0xbdb35b73	-0.08757677
126	0xbdb337b9	-0.08750863
127	0x3a8a6dc3	0.0010561276
128	0xbd9ca60a	-0.07648857
129	0xbe18433e	-0.14869401
130	0xbe04522e	-0.12921974
131	0x3dd292bb	0.10281893
132	0xbe24cd71	-0.16093995
133	0xbd2846c8	-0.041083127
134	0x3cbb0795	0.022830764
135	0x3df55ef4	0.119810015
136	0x3d5445ab	0.051824253
137	0xbd2ff09f	-0.042954084
138	0xbc96980b	-0.018383047
139	0xbe0101e8	-0.12598383
140	0x3ca48fa7	0.02008803
141	0x3e08f878	0.13376033
142	0xbce4d9f8	-0.027935967
143	0xbce21051	-0.02759567
144	0x3e124dc2	0.14287475
145	0xbdd238b2	-0.1026472
146	0xbe126175	-0.1429499
147	0xbdd65bbe	-0.10466717
148	0x3e02ad7f	0.12761496
149	0xbc194477	-0.009354702
150	0xbe03e3cb	-0.12879865
151	0x3d7a2395	0.06106909
152	0x3e04273d	0.12905593
153	0xbe2641c1	-0.1623602
154	0x3d815b8b	0.063162886
155	0xbc373210	-0.011181369
156	0xbd262df4	-0.040571168
157	0x3ca3a97d	0.01997828
158	0xbd9f293a	-0.07771535
159	0x3da72042	0.081604496
160	0xbd8c9691	-0.06864656
161	0x3de6e3bb	0.11273905
162	0x3db6b163	0.089205526
163	0xbd43897c	-0.047738537
164	0x3e337453	0.17524843
165	0x3c14ef4d	0.009090257
166	0x3d1efb46	0.03881385
167	0x3e325588	0.1741544
168	0x3e549e37	0.20763479
169	0x3cb133da	0.02163117
170	0x3e39d1ab	0.18146388
171	0x3dbd44f8	0.0924167
172	0xbdeae0ab	-0.11468633
173	0x3e58219c	0.21106571
174	0x3c6a6563	0.014306399
175	0xbe2474d6	-0.16060194
176	0xbe11eccc	-0.14250487
177	0xbe092a62	-0.13395074
178	0xbe0cb846	-0.1374217
179	0xbe1e436f	-0.15455411
180	0x3b1aba07	0.0023609416
181	0xbe1375d9	-0.14400424
182	0x3d23cfd2	0.039993115
183	0xbdaf8038	-0.08569378
184	0xbe12fbc7	-0.14353858
185	0xbdeea252	-0.11652054
186	0xbd8039a5	-0.06260995
187	0xbd943e43	-0.07238438
188	0x3e0688fc	0.13138193
189	0x3d8880c1	0.06665183
190	0xbdadcc03	-0.08486178
191	0x3d405c7c	0.0469632
192	0x3e1d7e51	0.15380217
193	0x3c17fd86	0.009276753
194	0x3e2fbdf2	0.17162302
195	0x38accf23	8.240181e-05
196	0x3ca13ca4	0.019682236
197	0xbd989c3d	-0.07451675
198	0x3d3f3031	0.04667682
199	0xbe373a9b	-0.1789345
200	0x3d077cbd	0.033077944
201	0x3d0a7e7b	0.033812027
202	0x3db22c20	0.086998224
203	0xbd719503	-0.05898
204	0x3de05e53	0.10955491
205	0x3d8ff6df	0.07029509
206	0xbe1ea26b	-0.15491645
207	0x3d6f2a01	0.058389667
208	0xbd0caa49	-0.034342084
209	0x3dfe1a3e	0.12407349
210	0xbd14cdb1	-0.036328975
211	0x3e079195	0.13239129
212	0x3de36591	0.11103357
213	0x3d959123	0.07303073
214	0xbe45da2f	-0.19321512
215	0x3e3b1112	0.1826823
216	0xbe0fc741	-0.14040853
217	0xbd815899	-0.06315727
218	0x3bc44f47	0.005990896
219	0x3dabdea1	0.083920725
220	0x3d3da11c	0.046296224
221	0xbd78f862	-0.06078375
222	0xbe23c638	-0.15993583
223	0x3df9f1ca	0.12204321
224	0xbe1d2729	-0.1534697
225	0xbdc06944	-0.09395078
226	0xbd85deeb	-0.06536659
227	0x3e2e85a1	0.17043163
228	0x3e0b5803	0.13607793
229	0x3d81164e	0.063030824
230	0x3dd457b2	0.10368289
231	0xbe0dbc57	-0.13841377
232	0xbd8d9a22	-0.06914164
233	0x3e2349cf	0.15946124
234	0x3dfceca1	0.12349821
235	0xbd73b636	-0.05949994
236	0xbe11a3d1	-0.14222647
237	0xbd641fbf	-0.055694338
238	0xbc9034a7	-0.017603232
239	0x3d81527b	0.0631456
240	0x3c9205ae	0.017824974
241	0xbe134e86	-0.14385423
242	0xbdb2bfe3	-0.08728006
243	0xbd5b73dd	-0.053577293
244	0xbe17b4e1	-0.14815094
245	0x3e006fb5	0.12542613
246	0xbde45418	-0.11148852
247	0x3df44a80	0.11928272
248	0xbe012aef	-0.12614034
249	0xbd8c3210	-0.06845486
250	0x3d124d65	0.03571834
251	0x3d655ace	0.0559948
252	0x3be998f5	0.0071288296
253	0x3d640830	0.05567187
254	0xbe30b063	-0.17254786
255	0xbda312c0	-0.07962561

blocks.0.fcn_layer.bias f4 [32]
0	0x3de48c66	0.111595914
1	0x3df5edd7	0.12008255
2	0xbd14ca1c	-0.03632556
3	0x3e2fd2c3	0.17170243
4	0xb9f7a380	-0.00047233328
5	0xba0b1457	-0.000530546
6	0x3e22dfb6	0.15905651
7	0x3e0f03b0	0.1396625
8	0xbddc9881	-0.10771275
9	0x3db59ea1	0.08868147
10	0xbbf57534	-0.0074907783
11	0x3d436262	0.047701247
12	0x3dae54ac	0.08512244
13	0x3e071e02	0.13195041
14	0x3dbc69a0	0.09199834
15	0x3cfd1093	0.030891692
16	0x3c412286	0.011788016
17	0x3ca87c95	0.020567218
18	0x3d0a483b	0.03376029
19	0x3e1d56fe	0.15365216
20	0xbe0a1314	-0.1348384
21	0xbe1ce880	-0.15323067
22	0x3e00ed96	0.12590632
23	0x3dd40e84	0.10354331
24	0xbd1a0fa7	-0.037612583
25	0x3d5b2997	0.05350646
26	0xbe418225	-0.18897302
27	0xbe081c6c	-0.13292092
28	0xbde0ceb6	-0.10976927
29	0xbcd3224f	-0.025773196
30	0xbe43a2e6	-0.1910511
31	0xbdda128e	-0.1064807

blocks.0.layer_norm.weight f4 [32]
0	0x3fa67535	1.3004519
1	0x3f801314	1.0005822
2	0x3f7f651d	0.9976366
3	0x3f72ff06	0.94920385
4	0x3f781929	0.9691339
5	0x3f8f326e	1.1187265
6	0x3fa771c9	1.30816
7	0x3f7927c5	0.9732631
8	0x3f88f297	1.0699033
9	0x3f8937f5	1.0720202
10	0x3fa24310	1.2676716
11	0x3fb7148b	1.4303144
12	0x3f89af2f	1.0756587
13	0x3f86e8e4	1.0539823
14	0x3f81acd9	1.0130874
15	0x3f7fd817	0.999391
16	0x3f8906c6	1.0705192
17	0x3f8ccfc5	1.1000906
18	0x3f76691b	0.9625413
19	0x3fa0c62c	1.2560477
20	0x3f872d1d	1.0560642
21	0x3f8060b3	1.002951
22	0x3fa9dab0	1.3269863
23	0x3f82fa42	1.0232623
24	0x3f7f7532	0.997882
25	0x3f9bdb01	1.217621
26	0x3f84eeb3	1.0385345
27	0x3f900756	1.1252239
28	0x3f9ea3a9	1.2393695
29	0x3f86c27a	1.05281
30	0x3f7f9927	0.99843067
31	0x3f850c26	1.0394332

blocks.0.layer_norm.bias f4 [32]
0	0x3e9380ec	0.28809297
1	0xba7e0b11	-0.000969098
2	0xbbe4d9f5	-0.0069839903
3	0xbcfd74da	-0.030939508
4	0xbd19ecc5	-0.037579317
5	0x3d38b624	0.045095578
6	0x3e926c71	0.2859836
7	0xbd32c254	-0.043642357
8	0x3d6c8315	0.057742197
9	0x3d04ae58	0.03239283
10	0x3e84add0	0.25913858
11	0x3eae2c8e	0.34018368
12	0x3d753c88	0.05987218
13	0x3d2f53aa	0.042804398
14	0x3c6f1c34	0.0145941265
15	0x3b3a4a4f	0.002842564
16	0x3cd4a4a0	0.025957406
17	0x3d731e18	0.05935487
18	0xbd263d7a	-0.040585972
19	0x3e835470	0.25650358
20	0x3d0fa989	0.03507379
21	0xb9f010a4	-0.00045788765
22	0x3e9b263a	0.30302602
23	0x3bc5de29	0.0060384464
24	0xbc094829	-0.008379021
25	0x3e7cad5e	0.2467551
26	0x3ccd0704	0.02502776
27	0x3d86e1d3	0.06586041
28	0x3e8254a4	0.254552
29	0x3d0a8c1a	0.033825018
30	0x3b3b2a0c	0.0028558997
31	0x3c178af7	0.00924944

last_layer.weight f4 [1, 32]
0	0xbe97a092	-0.29614693
1	0xbc66bd21	-0.014083178
2	0x3e0b020f	0.13575004
3	0x3c55f973	0.013059962
4	0xbe143f11	-0.14477183
5	0x3e689165	0.22711714
6	0xbea2b950	-0.31782007
7	0x3e1af643	0.15133004
8	0x3e1d57fe	0.15365598
9	0x3dc6f6e4	0.097150594
10	0xbebf13a6	-0.37319678
11	0xbebf6134	-0.37378848
12	0x3e27cd34	0.16386873
13	0x3ddea145	0.108706035
14	0x3dc26db4	0.094935805
15	0x3df45efb	0.119321786
16	0x3db1190c	0.086473554
17	0x3e85b669	0.2611573
18	0xbdc26600	-0.09492111
19	0xbec40d5f	-0.3829145
20	0x3de5f141	0.11227656
21	0x3cf2c5d8	0.029635355
22	0xbe903287	-0.2816355
23	0x3da007b8	0.07813972
24	0x3db69638	0.08915371
25	0xbeb239f1	-0.3480983
26	0x3da8aa30	0.08235586
27	0x3e907026	0.28210562
28	0xbeadde17	-0.33958504
29	0x3e428545	0.18996151
30	0xb97af50a	-0.00023933142
31	0x3dde62d7	0.10858696
